…
Number of sequences: 120778
Interictal sequences: 105789 (87.59%)
Ictal sequences: 14989 (12.41%)
Number of batches: 1888

-----------------------------------------------------------

Calculating statistics to scale the data...
Model: "model"
_________________________________________________________________
 Layer (type)                Output Shape              Param #   
=================================================================
 input_1 (InputLayer)        [(None, 20, 256)]         0         
                                                                 
 gru (GRU)                   (None, 256)               394752    
                                                                 
 flatten (Flatten)           (None, 256)               0         
                                                                 
 dense (Dense)               (None, 256)               65792     
                                                                 
 batch_normalization (Batch  (None, 256)               1024      
 Normalization)                                                  
                                                                 
 activation (Activation)     (None, 256)               0         
                                                                 
 dense_1 (Dense)             (None, 2)                 514       
                                                                 
 activation_1 (Activation)   (None, 2)                 0         
                                                                 
=================================================================
Total params: 462082 (1.76 MB)
Trainable params: 461570 (1.76 MB)
Non-trainable params: 512 (2.00 KB)
_________________________________________________________________
1/2 [==============>...............] - ETA: 0s2/2 [==============================] - 1s 22ms/step
…
